{
    "batch_size": 64,
    "buffer_size": 1000000,
    "device": "device(type='cuda', index=0)",
    "gamma": 0.99,
    "input_dim": 33,
    "log_dir": "runs/Aug13_17-36-37_DDPG Unity Reacher multi",
    "max_t": 2000,
    "model_actor": "Policy_actor(\n  (fc1): Linear(in_features=33, out_features=64, bias=True)\n  (bn1): BatchNorm1d(64, eps=1e-05, momentum=0.1, affine=True, track_running_stats=True)\n  (fc2): Linear(in_features=64, out_features=64, bias=True)\n  (bn2): BatchNorm1d(64, eps=1e-05, momentum=0.1, affine=True, track_running_stats=True)\n  (fc3): Linear(in_features=64, out_features=4, bias=True)\n  (bn3): BatchNorm1d(4, eps=1e-05, momentum=0.1, affine=True, track_running_stats=True)\n)",
    "model_critic": "Policy_critic(\n  (fc1): Linear(in_features=37, out_features=64, bias=True)\n  (bn1): BatchNorm1d(64, eps=1e-05, momentum=0.1, affine=True, track_running_stats=True)\n  (fc2): Linear(in_features=64, out_features=64, bias=True)\n  (bn2): BatchNorm1d(64, eps=1e-05, momentum=0.1, affine=True, track_running_stats=True)\n  (fc3): Linear(in_features=64, out_features=1, bias=True)\n  (bn3): BatchNorm1d(1, eps=1e-05, momentum=0.1, affine=True, track_running_stats=True)\n)",
    "n_episodes": 2000,
    "n_step_td": 1,
    "optimiser_actor": "Adam (\nParameter Group 0\n    amsgrad: False\n    betas: (0.9, 0.999)\n    eps: 1e-08\n    lr: 0.0001\n    weight_decay: 0\n)",
    "optimiser_critic": "Adam (\nParameter Group 0\n    amsgrad: False\n    betas: (0.9, 0.999)\n    eps: 1e-08\n    lr: 0.0001\n    weight_decay: 0\n)",
…
